…
  return torch._C._cuda_getDeviceCount() > 0
2025-12-14 08:56:24,981 - INFO - CUDA not available
2025-12-14 08:56:24,981 - INFO - Device set to: cpu
2025-12-14 08:56:31,513 - INFO - Label mapping: {np.str_('1_Pronacio'): 0, np.str_('2_Neutralis'): 1, np.str_('3_Szupinacio'): 2}
2025-12-14 08:56:31,513 - INFO - Train loader size: 241
==========================================================================================
Layer (type:depth-idx)                   Output Shape              Param #
==========================================================================================
BaseLineNetWork                          [16, 3]                   --
├─Sequential: 1-1                        [16, 32, 1, 1]            --
│    └─Conv2d: 2-1                       [16, 8, 112, 112]         80
│    └─ReLU: 2-2                         [16, 8, 112, 112]         --
│    └─Conv2d: 2-3                       [16, 16, 56, 56]          1,168
│    └─ReLU: 2-4                         [16, 16, 56, 56]          --
│    └─Conv2d: 2-5                       [16, 32, 28, 28]          4,640
│    └─ReLU: 2-6                         [16, 32, 28, 28]          --
│    └─AdaptiveAvgPool2d: 2-7            [16, 32, 1, 1]            --
├─Sequential: 1-2                        [16, 3]                   --
│    └─Flatten: 2-8                      [16, 32]                  --
│    └─Linear: 2-9                       [16, 64]                  2,112
│    └─ReLU: 2-10                        [16, 64]                  --
│    └─Linear: 2-11                      [16, 3]                   195
==========================================================================================
Total params: 8,195
Trainable params: 8,195
Non-trainable params: 0
Total mult-adds (Units.MEGABYTES): 132.90
==========================================================================================
Input size (MB): 3.21
Forward/backward pass size (MB): 22.49
Params size (MB): 0.03
Estimated Total Size (MB): 25.73
…
2025-12-14 08:56:59,757 - INFO - [… 2025-12-14 08:56:59,761 - INFO - Baseline model weights saved to /app/src/models/baseline_weights.pth
2025-12-14 08:57:06,465 - INFO - Label mapping: {np.str_('1_Pronacio'): 0, np.str_('2_Neutralis'): 1, np.str_('3_Szupinacio'): 2}
2025-12-14 08:57:06,480 - INFO - Train loader size: 192
2025-12-14 08:57:06,481 - INFO - Validation loader size: 49
==========================================================================================
Layer (type:depth-idx)                   Output Shape              Param #
==========================================================================================
BestNetWork                              [16, 3]                   --
├─Sequential: 1-1                        [16, 64, 1, 1]            --
│    └─Conv2d: 2-1                       [16, 8, 224, 224]         80
│    └─BatchNorm2d: 2-2                  [16, 8, 224, 224]         16
│    └─ReLU: 2-3                         [16, 8, 224, 224]         --
│    └─MaxPool2d: 2-4                    [16, 8, 112, 112]         --
│    └─Conv2d: 2-5                       [16, 16, 112, 112]        1,168
│    └─BatchNorm2d: 2-6                  [16, 16, 112, 112]        32
│    └─ReLU: 2-7                         [16, 16, 112, 112]        --
│    └─MaxPool2d: 2-8                    [16, 16, 56, 56]          --
│    └─Conv2d: 2-9                       [16, 32, 56, 56]          4,640
│    └─BatchNorm2d: 2-10                 [16, 32, 56, 56]          64
│    └─ReLU: 2-11                        [16, 32, 56, 56]          --
│    └─MaxPool2d: 2-12                   [16, 32, 28, 28]          --
│    └─Conv2d: 2-13                      [16, 64, 28, 28]          18,496
│    └─BatchNorm2d: 2-14                 [16, 64, 28, 28]          128
│    └─ReLU: 2-15                        [16, 64, 28, 28]          --
│    └─MaxPool2d: 2-16                   [16, 64, 14, 14]          --
│    └─AdaptiveAvgPool2d: 2-17           [16, 64, 1, 1]            --
├─Sequential: 1-2                        [16, 3]                   --
│    └─Flatten: 2-18                     [16, 64]                  --
│    └─Linear: 2-19                      [16, 128]                 8,320
│    └─ReLU: 2-20                        [16, 128]                 --
│    └─Dropout: 2-21                     [16, 128]                 --
│    └─Linear: 2-22                      [16, 3]                   387
==========================================================================================
Total params: 33,331
Trainable params: 33,331
Non-trainable params: 0
Total mult-adds (Units.MEGABYTES): 763.62
==========================================================================================
Input size (MB): 3.21
Forward/backward pass size (MB): 192.69
Params size (MB): 0.13
Estimated Total Size (MB): 196.04
…
