…
UDAFunctions.cpp:109.)
  return torch._C._cuda_getDeviceCount() > 0
2025-12-13 12:54:01,783 - INFO - CUDA not available
2025-12-13 12:54:01,783 - INFO - Device set to: cpu
2025-12-13 12:54:08,425 - INFO - Label mapping: {np.str_('1_Pronacio'): 0, np.str_('2_Neutralis'): 1, np.str_('3_Szupinacio'): 2}
==========================================================================================
Layer (type:depth-idx)                   Output Shape              Param #
==========================================================================================
BaseLineNetWork                          [32, 3]                   --
Sequential: 1-1                        [32, 32, 1, 1]            --
    Conv2d: 2-1                       [32, 8, 112, 112]         80
    ReLU: 2-2                         [32, 8, 112, 112]         --
    Conv2d: 2-3                       [32, 16, 56, 56]          1,168
    ReLU: 2-4                         [32, 16, 56, 56]          --
    Conv2d: 2-5                       [32, 32, 28, 28]          4,640
    ReLU: 2-6                         [32, 32, 28, 28]          --
    AdaptiveAvgPool2d: 2-7            [32, 32, 1, 1]            --
Sequential: 1-2                        [32, 3]                   --
    Flatten: 2-8                      [32, 32]                  --
    Linear: 2-9                       [32, 128]                 4,224
    ReLU: 2-10                        [32, 128]                 --
    Linear: 2-11                      [32, 64]                  8,256
    ReLU: 2-12                        [32, 64]                  --
    Linear: 2-13                      [32, 3]                   195
==========================================================================================
Total params: 18,563
Trainable params: 18,563
Non-trainable params: 0
Total mult-adds (Units.MEGABYTES): 266.14
==========================================================================================
Input size (MB): 6.42
Forward/backward pass size (MB): 45.01
Params size (MB): 0.07
Estimated Total Size (MB): 51.50
==========================================================================================
2025-12-13 12:54:08,492 - INFO - ==========================================================================================
Layer (type:depth-idx)                   Output Shape              Param #
==========================================================================================
BaseLineNetWork                          [32, 3]                   --
Sequential: 1-1                        [32, 32, 1, 1]            --
    Conv2d: 2-1                       [32, 8, 112, 112]         80
    ReLU: 2-2                         [32, 8, 112, 112]         --
    Conv2d: 2-3                       [32, 16, 56, 56]          1,168
    ReLU: 2-4                         [32, 16, 56, 56]          --
    Conv2d: 2-5                       [32, 32, 28, 28]          4,640
    ReLU: 2-6                         [32, 32, 28, 28]          --
    AdaptiveAvgPool2d: 2-7            [32, 32, 1, 1]            --
Sequential: 1-2                        [32, 3]                   --
    Flatten: 2-8                      [32, 32]                  --
    Linear: 2-9                       [32, 128]                 4,224
    ReLU: 2-10                        [32, 128]                 --
    Linear: 2-11                      [32, 64]                  8,256
    ReLU: 2-12                        [32, 64]                  --
    Linear: 2-13                      [32, 3]                   195
==========================================================================================
Total params: 18,563
Trainable params: 18,563
Non-trainable params: 0
Total mult-adds (Units.MEGABYTES): 266.14
==========================================================================================
Input size (MB): 6.42
Forward/backward pass size (MB): 45.01
Params size (MB): 0.07
Estimated Total Size (MB): 51.50
…
2025-12-13 12:54:35,951 - INFO - [… 2025-12-13 12:54:35,956 - INFO - Baseline model weights saved to /app/src/models/baseline_weights.pth
2025-12-13 12:54:42,620 - INFO - Label mapping: {np.str_('1_Pronacio'): 0, np.str_('2_Neutralis'): 1, np.str_('3_Szupinacio'): 2}
2025-12-13 12:54:42,641 - INFO - Train loader size: 192
2025-12-13 12:54:42,641 - INFO - Validation loader size: 49
==========================================================================================
Layer (type:depth-idx)                   Output Shape              Param #
==========================================================================================
BestNetWork                              [32, 3]                   --
Sequential: 1-1                        [32, 32, 1, 1]            --
    Conv2d: 2-1                       [32, 8, 224, 224]         80
    BatchNorm2d: 2-2                  [32, 8, 224, 224]         16
    ReLU: 2-3                         [32, 8, 224, 224]         --
    MaxPool2d: 2-4                    [32, 8, 112, 112]         --
    Conv2d: 2-5                       [32, 16, 112, 112]        1,168
    BatchNorm2d: 2-6                  [32, 16, 112, 112]        32
    ReLU: 2-7                         [32, 16, 112, 112]        --
    MaxPool2d: 2-8                    [32, 16, 56, 56]          --
    Conv2d: 2-9                       [32, 32, 56, 56]          4,640
    BatchNorm2d: 2-10                 [32, 32, 56, 56]          64
    ReLU: 2-11                        [32, 32, 56, 56]          --
    MaxPool2d: 2-12                   [32, 32, 28, 28]          --
    Conv2d: 2-13                      [32, 64, 28, 28]          18,496
    BatchNorm2d: 2-14                 [32, 64, 28, 28]          128
    ReLU: 2-15                        [32, 64, 28, 28]          --
    MaxPool2d: 2-16                   [32, 64, 14, 14]          --
    Conv2d: 2-17                      [32, 32, 14, 14]          18,464
    BatchNorm2d: 2-18                 [32, 32, 14, 14]          64
    ReLU: 2-19                        [32, 32, 14, 14]          --
    MaxPool2d: 2-20                   [32, 32, 7, 7]            --
    AdaptiveAvgPool2d: 2-21           [32, 32, 1, 1]            --
Sequential: 1-2                        [32, 3]                   --
    Flatten: 2-22                     [32, 32]                  --
    Linear: 2-23                      [32, 128]                 4,224
    ReLU: 2-24                        [32, 128]                 --
    Linear: 2-25                      [32, 64]                  8,256
    ReLU: 2-26                        [32, 64]                  --
    Linear: 2-27                      [32, 3]                   195
==========================================================================================
Total params: 55,827
Trainable params: 55,827
Non-trainable params: 0
Total mult-adds (Units.GIGABYTES): 1.64
==========================================================================================
Input size (MB): 6.42
Forward/backward pass size (MB): 388.61
Params size (MB): 0.22
Estimated Total Size (MB): 395.26
==========================================================================================
2025-12-13 12:54:42,792 - INFO - ==========================================================================================
Layer (type:depth-idx)                   Output Shape              Param #
==========================================================================================
BestNetWork                              [32, 3]                   --
Sequential: 1-1                        [32, 32, 1, 1]            --
    Conv2d: 2-1                       [32, 8, 224, 224]         80
    BatchNorm2d: 2-2                  [32, 8, 224, 224]         16
    ReLU: 2-3                         [32, 8, 224, 224]         --
    MaxPool2d: 2-4                    [32, 8, 112, 112]         --
    Conv2d: 2-5                       [32, 16, 112, 112]        1,168
    BatchNorm2d: 2-6                  [32, 16, 112, 112]        32
    ReLU: 2-7                         [32, 16, 112, 112]        --
    MaxPool2d: 2-8                    [32, 16, 56, 56]          --
    Conv2d: 2-9                       [32, 32, 56, 56]          4,640
    BatchNorm2d: 2-10                 [32, 32, 56, 56]          64
    ReLU: 2-11                        [32, 32, 56, 56]          --
    MaxPool2d: 2-12                   [32, 32, 28, 28]          --
    Conv2d: 2-13                      [32, 64, 28, 28]          18,496
    BatchNorm2d: 2-14                 [32, 64, 28, 28]          128
    ReLU: 2-15                        [32, 64, 28, 28]          --
    MaxPool2d: 2-16                   [32, 64, 14, 14]          --
    Conv2d: 2-17                      [32, 32, 14, 14]          18,464
    BatchNorm2d: 2-18                 [32, 32, 14, 14]          64
    ReLU: 2-19                        [32, 32, 14, 14]          --
    MaxPool2d: 2-20                   [32, 32, 7, 7]            --
    AdaptiveAvgPool2d: 2-21           [32, 32, 1, 1]            --
Sequential: 1-2                        [32, 3]                   --
    Flatten: 2-22                     [32, 32]                  --
    Linear: 2-23                      [32, 128]                 4,224
    ReLU: 2-24                        [32, 128]                 --
    Linear: 2-25                      [32, 64]                  8,256
    ReLU: 2-26                        [32, 64]                  --
    Linear: 2-27                      [32, 3]                   195
==========================================================================================
Total params: 55,827
Trainable params: 55,827
Non-trainable params: 0
Total mult-adds (Units.GIGABYTES): 1.64
==========================================================================================
Input size (MB): 6.42
Forward/backward pass size (MB): 388.61
Params size (MB): 0.22
Estimated Total Size (MB): 395.26
…
